…
&lt;/span&gt;&lt;/span&gt;&lt;span class=&#34;line&#34;&gt;&lt;span class=&#34;cl&#34;&gt;&lt;span class=&#34;nb&#34;&gt;print&lt;/span&gt;&lt;span class=&#34;p&#34;&gt;(&lt;/span&gt;&lt;span class=&#34;s2&#34;&gt;&amp;#34;Pre-training accuracy: &lt;/span&gt;&lt;span class=&#34;si&#34;&gt;%.4f%%&lt;/span&gt;&lt;span class=&#34;s2&#34;&gt;&amp;#34;&lt;/span&gt; &lt;span class=&#34;o&#34;&gt;%&lt;/span&gt; &lt;span class=&#34;n&#34;&gt;accuracy&lt;/span&gt;&lt;span class=&#34;p&#34;&gt;)&lt;/span&gt;
&lt;/span&gt;&lt;/span&gt;&lt;/code&gt;&lt;/pre&gt;&lt;/div&gt;&lt;pre&gt;&lt;code&gt;Model: &amp;quot;sequential&amp;quot;
_________________________________________________________________
 Layer (type)                Output Shape              Param #   
=================================================================
 conv2d (Conv2D)             (None, 39, 861, 16)       80        
                                                                 
 max_pooling2d (MaxPooling2D  (None, 19, 430, 16)      0         
 )                                                               
                                                                 
 dropout (Dropout)           (None, 19, 430, 16)       0         
                                                                 
 conv2d_1 (Conv2D)           (None, 18, 429, 32)       2080      
                                                                 
 max_pooling2d_1 (MaxPooling  (None, 9, 214, 32)       0         
 2D)                                                             
                                                                 
 dropout_1 (Dropout)         (None, 9, 214, 32)        0         
                                                                 
 conv2d_2 (Conv2D)           (None, 8, 213, 64)        8256      
                                                                 
 max_pooling2d_2 (MaxPooling  (None, 4, 106, 64)       0         
 2D)                                                             
                                                                 
 dropout_2 (Dropout)         (None, 4, 106, 64)        0         
                                                                 
 conv2d_3 (Conv2D)           (None, 3, 105, 128)       32896     
                                                                 
 max_pooling2d_3 (MaxPooling  (None, 1, 52, 128)       0         
 2D)                                                             
                                                                 
 dropout_3 (Dropout)         (None, 1, 52, 128)        0         
                                                                 
 global_average_pooling2d (G  (None, 128)              0         
 lobalAveragePooling2D)                                          
                                                                 
 dense (Dense)               (None, 6)                 774       
                                                                 
=================================================================
Total params: 44,086
Trainable params: 44,086
Non-trainable params: 0
_________________________________________________________________
6/6 [==============================] - 1s 211ms/step - loss: 0.1472 - accuracy: 0.9511
Pre-training accuracy: 95.1087%
&lt;/code&gt;&lt;/pre&gt;
…
