…
&lt;/span>&lt;/span>&lt;span class="line">&lt;span class="cl">&lt;span class="nb">print&lt;/span>&lt;span class="p">(&lt;/span>&lt;span class="s2">&amp;#34;Pre-training accuracy: &lt;/span>&lt;span class="si">%.4f%%&lt;/span>&lt;span class="s2">&amp;#34;&lt;/span> &lt;span class="o">%&lt;/span> &lt;span class="n">accuracy&lt;/span>&lt;span class="p">)&lt;/span>
&lt;/span>&lt;/span>&lt;/code>&lt;/pre>&lt;/div>&lt;pre>&lt;code>Model: &amp;quot;sequential&amp;quot;
_________________________________________________________________
Layer (type) Output Shape Param #
=================================================================
conv2d (Conv2D) (None, 39, 861, 16) 80
max_pooling2d (MaxPooling2D (None, 19, 430, 16) 0
)
dropout (Dropout) (None, 19, 430, 16) 0
conv2d_1 (Conv2D) (None, 18, 429, 32) 2080
max_pooling2d_1 (MaxPooling (None, 9, 214, 32) 0
2D)
dropout_1 (Dropout) (None, 9, 214, 32) 0
conv2d_2 (Conv2D) (None, 8, 213, 64) 8256
max_pooling2d_2 (MaxPooling (None, 4, 106, 64) 0
2D)
dropout_2 (Dropout) (None, 4, 106, 64) 0
conv2d_3 (Conv2D) (None, 3, 105, 128) 32896
max_pooling2d_3 (MaxPooling (None, 1, 52, 128) 0
2D)
dropout_3 (Dropout) (None, 1, 52, 128) 0
global_average_pooling2d (G (None, 128) 0
lobalAveragePooling2D)
dense (Dense) (None, 6) 774
=================================================================
Total params: 44,086
Trainable params: 44,086
Non-trainable params: 0
_________________________________________________________________
6/6 [==============================] - 1s 211ms/step - loss: 0.1472 - accuracy: 0.9511
Pre-training accuracy: 95.1087%
&lt;/code>&lt;/pre>
&lt;p>#Training&lt;/p>
&lt;p>Here we will train the model. If we have a trained model, we can load it instead from the next cell.&lt;/p>
…
